diabetes_classifier.tflite (tflite, 694808 bytes, 5 tensors)

arith.constant f4 [1, 64]
0	0xbe804056	-0.25049084
1	0xbe46c3b6	-0.19410595
2	0xbe784665	-0.24245603
3	0x3db66077	0.08905118
4	0x3b7ea4c0	0.0038855523
5	0xbe5c5305	-0.21516044
6	0x3e4db369	0.20087971
7	0xbe4e95c7	-0.20174323
8	0xbe72db9c	-0.23716587
9	0xbdafb629	-0.08579666
10	0xbd80737a	-0.062720254
11	0x3e553d8e	0.20824262
12	0xbe47bbf3	-0.1950529
13	0xbe830548	-0.25589967
14	0xbe9292e6	-0.286277
15	0x3e4e2ea1	0.20134975
16	0x3e4a8ab4	0.19779474
17	0xbe8c87df	-0.2744741
18	0xbda62fdb	-0.081145965
19	0x3d9c9a97	0.07646673
20	0xbe9204a0	-0.28519154
21	0x3e88cb00	0.26717377
22	0x3e280c0d	0.16410847
23	0x3dde348c	0.10849866
24	0xbdf7e16d	-0.121035434
25	0x3d395e89	0.04525617
26	0xbe30750c	-0.1723215
27	0xbd8bc4be	-0.06824635
28	0x3e847dc2	0.25877196
29	0xbe558cc9	-0.20854487
30	0xbd9ebd47	-0.077509455
31	0xbe49a537	-0.1969193
32	0xbd674da2	-0.05647052
33	0x3dd36aa8	0.103230774
34	0xbe2c2ebb	-0.16814701
35	0x3d979733	0.07401886
36	0xbdf41782	-0.11918546
37	0x3e93ea1d	0.28889552
38	0xbdf6390f	-0.12022602
39	0xbdb4a4d8	-0.08820504
40	0xbe6774f4	-0.22603208
41	0x3cbe5302	0.02323294
42	0xbe691e35	-0.2276543
43	0x3e44db1a	0.19224206
44	0x3e401a17	0.18759952
45	0x3e9cc71e	0.30620664
46	0xbe4d3532	-0.20039824
47	0x3e450248	0.19239151
48	0x3e99d69f	0.30046555
49	0x3d84018a	0.06445606
50	0x3d84961a	0.06473942
51	0xbe9d24fb	-0.30692276
52	0xbe0f33da	-0.13984624
53	0x3ddb3128	0.10702735
54	0x3e874de8	0.26426625
55	0xbe350616	-0.17678103
56	0x3d3f1ac8	0.0466564
57	0xbc802c94	-0.015646257
58	0xbe31cbfa	-0.17362967
59	0x3e374403	0.17897038
60	0xbcb5ed30	-0.022207826
61	0xbdc7802e	-0.09741245
62	0x3cdc8191	0.02691725
63	0x3e47d671	0.19515397

arith.constant1 f4 [64, 128]
0	0xbde503c6	-0.1118236
1	0x3df5a150	0.119936585
2	0xbc8614c1	-0.016367318
3	0xbdfb4347	-0.122686915
4	0xbe01d70c	-0.1267969
5	0xbd9ccdb9	-0.07656426
6	0x3ced8938	0.028996095
7	0xbd1cab47	-0.03824928
8	0x3e11d91c	0.14242977
9	0x3dbbba78	0.091664255
10	0xbdb72ea3	-0.08944442
11	0xbd0fcc71	-0.03510708
12	0xbe1081b1	-0.14111973
13	0x3d952c51	0.07283843
14	0x3d3d1280	0.04616022
15	0xbd569779	-0.05239055
16	0xbbe25268	-0.0069067962
17	0xbe3b2d27	-0.18278943
18	0x3ca5a52d	0.020220364
19	0xbcf23b59	-0.029569315
20	0x3e28cd45	0.16484554
21	0x3d07a7d8	0.033119053
22	0x3dc8e031	0.09808386
23	0xbd2f3a87	-0.042780425
24	0xbe0a37dc	-0.13497871
25	0x3c8b6080	0.017013788
26	0x3c2ad0ea	0.010425786
27	0xbd14716f	-0.03624099
28	0x3e19684f	0.14981197
29	0xbdd6633b	-0.104681455
30	0xbdb27a27	-0.08714705
31	0x3d746d6a	0.059674658
32	0x3daf1675	0.08549205
33	0xbd39160f	-0.045187052
34	0xbac52200	-0.001504004
35	0x3df63707	0.120222144
36	0x3e2fb1be	0.17157647
37	0x3a0ad102	0.0005295427
38	0x3e07c926	0.13260326
39	0x3cacd8b0	0.021099418
40	0xbd92ef1c	-0.07174513
41	0xbd3bdc43	-0.045864355
42	0x3df9c713	0.121961735
43	0xbd300480	-0.04297304
44	0x3d864883	0.06556799
45	0xbcf52830	-0.02992639
46	0xbd932e3a	-0.071865514
47	0x3e1ae4b6	0.15126309
48	0x3d1f14f4	0.03883834
49	0x3cf5c0bd	0.029999131
50	0x3be71885	0.0070524835
51	0xbe273c8b	-0.16331689
52	0xbdf24a43	-0.118305705
53	0x3cf0737f	0.029351948
54	0x3c9bcdd1	0.01901904
55	0xbd9ce906	-0.07661633
56	0xbd89913a	-0.06717153
57	0xbd890c71	-0.06691826
58	0x3d8e8e9a	0.06960793
59	0x3e150ae3	0.14554934
60	0x3e24b23d	0.16083618
61	0xbe19656c	-0.14980096
62	0xbdcc977d	-0.099898316
63	0xbe377d33	-0.17918853
64	0x3d8f8c33	0.07009163
65	0xbddffe09	-0.10937125
66	0xbdb048dc	-0.08607647
67	0x3c3094f8	0.010777704
68	0xbd85cf5a	-0.0653369
69	0x3d48be07	0.04900935
70	0x3e243fd4	0.16039973
71	0xbda5221c	-0.080631465
72	0xbe2827f4	-0.16421491
73	0x3e180133	0.14844207
74	0x38ced732	9.862929e-05
75	0xbdd8117f	-0.10550212
76	0xbd5911e5	-0.05299558
77	0x3d8d646f	0.06903922
78	0xbdb185db	-0.08668109
79	0xbd9c94f7	-0.076456
80	0xbe11d232	-0.1424034
81	0x3df39bf7	0.11894982
82	0xbd26de53	-0.04073937
83	0x3dc98aa5	0.098408975
84	0x3daddfca	0.0848995
85	0xbd0d8a99	-0.034556005
86	0xbda05865	-0.0782936
87	0xbc768fdc	-0.015048947
88	0xbd4882d0	-0.048952878
89	0xbd51b6d1	-0.051199738
90	0x3e110f18	0.14165914
91	0xbdbf16b6	-0.09330504
92	0x3de8c269	0.11365206
93	0xbe1ae428	-0.15126097
94	0x3c042313	0.008065003
95	0xbd0a5fd2	-0.033782788
96	0x3d93a969	0.07210047
97	0x3d89ac33	0.067222975
98	0x3bdaac83	0.006673397
99	0xbd5b0288	-0.05346921
100	0x3daf62a3	0.08563735
101	0x3d0e586d	0.0347523
102	0xbd896042	-0.06707813
103	0x3df42560	0.11921191
104	0x3d5acf57	0.05342039
105	0xbe084c14	-0.13310272
106	0xbd8820a4	-0.06646851
107	0x3daf7a27	0.085682206
108	0xbda10a77	-0.07863324
109	0xbdc851a3	-0.09781196
110	0xbe372b31	-0.1788757
111	0xbdb456ad	-0.088055946
112	0x3ba4fc86	0.005034986
113	0xbe0077c2	-0.12545684
114	0xbe0030ad	-0.12518568
115	0x3c63b7bb	0.013898785
116	0x3dca291d	0.09871123
117	0xbe3ccc42	-0.18437293
118	0xb99168c2	-0.00027734606
119	0x3e0e8ad9	0.13920154
120	0xbdcfae13	-0.10140624
121	0xbd033ee7	-0.03204241
122	0x3ce6a97f	0.028156994
123	0xbe2dadd3	-0.1696084
124	0xbd7035ba	-0.058644988
125	0x3e14cecd	0.14532013
126	0x3d483f16	0.04888829
127	0xbe165323	-0.14680152
128	0x3d851c49	0.064995356
129	0xbdf554dc	-0.11979076
130	0xbd815425	-0.063148774
131	0xbe2403e0	-0.16017103
132	0xbe12c3fe	-0.14332578
133	0xbdc552cb	-0.09634932
134	0x3db7fc4c	0.08983669
135	0x3e20630c	0.15662783
136	0xbe1ed628	-0.15511382
137	0xbdc3bbe8	-0.09557325
138	0xbd4daa5a	-0.050211288
139	0xbdbe5d5d	-0.092951514
140	0xbc42d014	-0.01189043
141	0xbd686b9e	-0.056743257
142	0xbc462591	-0.0120939175
143	0x3d36d753	0.044638943
144	0x3dea30f0	0.11435115
145	0xbcdfdfce	-0.027328398
146	0xbbf52e7d	-0.0074823485
147	0x3cac9270	0.02106592
148	0x3e0cbd23	0.13744025
149	0x3dd4079e	0.10353015
150	0x3e186a48	0.14884293
151	0xbdfc1f75	-0.123106875
152	0x3dcc3d4e	0.099726304
153	0x3caf2141	0.021378161
154	0xbe1aebb2	-0.15128973
155	0x3d500430	0.050785244
156	0x3dbed6c6	0.093183085
157	0xbda7d32c	-0.08194575
158	0xbbe42850	-0.0069628134
159	0x3e13f562	0.14449075
160	0xbe111371	-0.14167573
161	0xbd014664	-0.03156127
162	0x3d0f9398	0.035052866
163	0x3de19fe9	0.110168286
164	0xbd9d0a6e	-0.07668005
165	0xbe3ab1dd	-0.18231912
166	0xbd8a64d4	-0.06757513
167	0xbd655474	-0.055988744
168	0x3d5acc95	0.05341776
169	0x3dd1a067	0.102356724
170	0x3e1844c2	0.14869979
171	0x3e27596e	0.16342708
172	0x3c9e3b50	0.019315392
173	0x3ca57ad7	0.020200176
174	0x3d8d9ca5	0.06914643
175	0xbda82f23	-0.082121156
176	0x3db8578d	0.09001074
177	0x3e23ac09	0.15983595
178	0x3d88c2bc	0.06677768
179	0xbd89aab2	-0.06722011
180	0xbe04a922	-0.12955144
181	0xbe2b12f0	-0.16706443
182	0x3de235d8	0.11045426
183	0xbcd755ca	-0.026286025
184	0xbc053f98	-0.008132838
185	0xbcc635b3	-0.024195528
186	0x3d29302e	0.041305713
187	0x3dddfed6	0.10839622
188	0xbdc7f7e0	-0.09764075
189	0x3d31d60f	0.043417033
190	0xbe1298b9	-0.14316072
191	0x3e0d5a2d	0.1380393
192	0xbd9c6f6b	-0.07638439
193	0xbddd7966	-0.108141705
194	0xbcb4d780	-0.022075415
195	0xbdd4836d	-0.1037663
196	0xbde732bc	-0.11288974
197	0xbc9336a8	-0.017970398
198	0xbdbecbd2	-0.093162194
199	0xbe24083e	-0.16018769
200	0xbe09d24f	-0.13459133
201	0xbe35e803	-0.17764287
202	0xbbea6b9c	-0.0071539413
203	0x3d962f00	0.07333183
204	0x3d255fc0	0.040374517
205	0x3e1bd61c	0.15218395
206	0x3da815d9	0.08207292
207	0x3bc16cdb	0.005902869
208	0x3daacbd5	0.08339659
209	0x3d822924	0.06355503
210	0x3e359dbd	0.17735954
211	0xbe28748f	-0.16450714
212	0xbe0db435	-0.13838275
213	0x3dbaf7d8	0.09129304
214	0xbddddcf5	-0.1083316
215	0x3c6d9553	0.014500934
216	0xbdb05454	-0.08609834
217	0x3e191d1d	0.14952512
218	0x3d91123c	0.07083556
219	0x3d08eb8b	0.033427756
220	0xbdd14455	-0.102181114
221	0x3dc3c8b7	0.09559768
222	0x3dd64443	0.10462239
223	0xbbe947c7	-0.007119152
224	0x3dc53a4d	0.096302606
225	0xbd14221b	-0.036165338
226	0x3df31952	0.11870064
227	0x3d57457a	0.052556492
228	0xbe39a815	-0.18130524
229	0x3d817a8a	0.063222006
230	0xbe08ecea	-0.13371626
231	0x3e3168fc	0.17325205
232	0xbd7c3c0e	-0.06158071
233	0xbe38313d	-0.17987533
234	0x3df0d2c3	0.117589496
235	0xbb6eefa2	-0.003645875
236	0xbd6a34e4	-0.057179347
237	0x3e05d42d	0.1306922
238	0x3cbc48fa	0.022984017
239	0x3ca2a919	0.019856023
240	0x3e0d1ed4	0.13781291
241	0xbd9d6da4	-0.07686928
242	0xbe2573fd	-0.16157527
243	0xbe0b1482	-0.13582042
244	0x3dec373b	0.11533972
245	0x3e099332	0.13435057
246	0x3d1d563d	0.03841232
247	0xbdd408e8	-0.10353261
248	0xbc8df9b3	-0.01733098
249	0x3e131e58	0.14367044
250	0x3da79bcd	0.081840135
251	0xbe14b187	-0.14520846
252	0xbe19dec3	-0.15026383
253	0x3ca290b6	0.019844394
254	0xbd97ed35	-0.074182905
255	0x3d0e4404	0.034732834

sequential_1/dense_1_2/BiasAdd/ReadVariableOp f4 [64]
0	0xbc37797e	-0.0111984
1	0xbba054ec	-0.004892936
2	0xbc304be6	-0.010760283
3	0xbb0a1655	-0.002107044
4	0xbc8cc482	-0.017183546
5	0x3c34aa7c	0.011026975
6	0x3b665fea	0.0035152384
7	0x3c4ca2cc	0.012489986
8	0x3b2ed659	0.0026678054
9	0x3c14e44c	0.009087633
10	0x3d60627e	0.05478143
11	0x3c0a3bd2	0.008437114
12	0xbbb725b9	-0.0055892137
13	0xbbc456b3	-0.0059917807
14	0xbb675b88	-0.003530236
15	0x3aaa6377	0.0012999614
16	0xbb9bd2e1	-0.0047553633
17	0xbb60d317	-0.0034305507
18	0x3b131c95	0.0022447456
19	0x3c9d5780	0.019206762
20	0x3bcda67b	0.0062759495
21	0x3b0197a0	0.0019774213
22	0x3c5d7d98	0.013518713
23	0x3c0b91a4	0.00851861
24	0xbc102eec	-0.00880025
25	0x3c597582	0.013272645
26	0xbc24eeca	-0.010066697
27	0x3c1f7dd8	0.009734593
28	0x3b39942d	0.002831708
29	0xbb653c17	-0.0034978443
30	0xbb8bd694	-0.004267523
31	0xbac5a6de	-0.0015079638
32	0x3baeca40	0.0053341687
33	0x3c441a33	0.011969137
34	0x3c5da157	0.013527236
35	0x3bfffe0c	0.007812267
36	0xbad9459b	-0.001657653
37	0x3ba7f0f6	0.0051251603
38	0x3be1f781	0.00689596
39	0xbbaa0be3	-0.0051894053
40	0xb956bb1a	-0.00020478331
41	0x3c3d30a2	0.0115472395
42	0x3b15d5ba	0.0022862987
43	0xbb378b55	-0.0028006632
44	0x3b139d76	0.0022524274
45	0x3b49e907	0.003080906
46	0xbb6f3f67	-0.0036506297
47	0x3c9894e8	0.018625692
48	0x3c65d7e6	0.014028525
49	0xbbdb3355	-0.006689469
50	0x3c87e4ff	0.016588686
51	0x3c586d37	0.013209633
52	0x3cc0046f	0.023439614
53	0xbcd64a0e	-0.026158359
54	0x3c6e9042	0.014560761
55	0x3b9ee9b5	0.0048496374
56	0x3c5b1af6	0.013373127
57	0xbc0397eb	-0.008031826
58	0x3cff622d	0.031174744
59	0x3cb04b88	0.021520391
60	0x3bf66439	0.0075192717
61	0xbc212098	-0.009834431
62	0x3cc118bc	0.023571365
63	0x3cf70c38	0.030157194

sequential_1/dense_1/BiasAdd/ReadVariableOp f4 [128]
0	0x3c45e34d	0.0120781185
1	0x3b2b0285	0.002609403
2	0x3aa36011	0.0012464543
3	0xbbfb1234	-0.007662082
4	0xbb147f7a	-0.002265899
5	0xbc1d2269	-0.009590724
6	0x3b9272c9	0.00446925
7	0xbb9750d6	-0.0046177907
8	0xbc4bdd15	-0.012442847
9	0xbb77cc3f	-0.003781095
10	0xbc590606	-0.013246065
11	0xb975ccfc	-0.00023441383
12	0x3c9429d7	0.018086357
13	0xbc708184	-0.014679316
14	0x3bc0ae05	0.0058801197
15	0xbb71fde5	-0.0036925015
16	0x3c2c3f99	0.01051321
17	0xbc3a1a59	-0.011358821
18	0xbbf69bc6	-0.007525894
19	0x3c79847c	0.015229341
20	0xbb8d2986	-0.0043079285
21	0x3c1e681d	0.009668377
22	0xbc19f37b	-0.009396429
23	0xbbd0da4e	-0.00637368
24	0x3c71c968	0.014757492
25	0xbc472332	-0.012154387
26	0x3c5a0859	0.013307654
27	0xbc7156dd	-0.0147301825
28	0xbcb60d20	-0.022223055
29	0xbc181f76	-0.009284845
30	0x3bf76807	0.007550243
31	0x3b1d4171	0.0023995305
32	0x3c6c7541	0.014432252
33	0x3c10e1df	0.008842914
34	0xbb39ce0d	-0.0028351576
35	0x3bbfb9ac	0.0058509912
36	0xbb89583f	-0.004191428
37	0x3c62b1ad	0.0138363065
38	0xbbfc0024	-0.0076904465
39	0x3c6c7807	0.014432914
40	0xbc358131	-0.011078165
41	0xbc24bacc	-0.0100543015
42	0xbc142ee9	-0.009044387
43	0x3c0e504f	0.008686139
44	0xbc3857a8	-0.011251368
45	0x3c8c4180	0.017121077
46	0xbbfe3f33	-0.007758999
47	0x3ca60bf7	0.020269377
48	0x3c41a705	0.011819606
49	0x3c2aae40	0.010417521
50	0xbaed1fd9	-0.0018091156
51	0xbc88e446	-0.016710412
52	0x3caf0716	0.021365684
53	0xbbe374e5	-0.006941425
54	0x3bcbe8d5	0.006222824
55	0xbc18f91f	-0.009336739
56	0x3a921739	0.0011145837
57	0x3bde6b77	0.006787713
58	0x38bef920	9.106309e-05
59	0x3caedff1	0.021347018
60	0xbc4419e9	-0.011969068
61	0x3bb31dac	0.0054661836
62	0x3c03733e	0.008023081
63	0xbbd6516e	-0.006540469
64	0xbc336c1f	-0.010951071
65	0xbbda7b5d	-0.006667538
66	0x3b896472	0.004192882
67	0xba3870b6	-0.0007035838
68	0x3c6cd7cf	0.01445575
69	0x3b84e60a	0.004055743
70	0x3b8fdfd6	0.004390697
71	0xbc0690cc	-0.008213233
72	0x3ba5b954	0.005057493
73	0x3b83fefd	0.0040281997
74	0x3b2355fc	0.0024923077
75	0xbcbcceab	-0.023047766
76	0xbc83ee42	-0.016104821
77	0xba066e74	-0.0005128153
78	0x3c43f720	0.011960775
79	0x3c3a3018	0.0113640055
80	0x3c412ea8	0.011790909
81	0xbba57b25	-0.0050500804
82	0xbbbd17c0	-0.0057706535
83	0x3c72aecb	0.014812182
84	0x3c485ccf	0.012229159
85	0x3c0ca25b	0.00858363
86	0x3c943461	0.018091382
87	0x3cb23096	0.021751683
88	0xbb8d9325	-0.0043205195
89	0x3c83e402	0.016099934
90	0xbaa63c12	-0.0012682697
91	0x3b1f23ba	0.002428277
92	0xbba8f503	-0.005156161
93	0xbbbe95d9	-0.005816203
94	0x3c6c37f1	0.014417634
95	0xbae65954	-0.0017574229
96	0xbc3006ae	-0.01074378
97	0x3c5fb6c4	0.013654415
98	0xba1779e5	-0.00057783566
99	0xbac19a0a	-0.0014770639
100	0xbadfeb8e	-0.001708375
101	0xb99fbbef	-0.00030466865
102	0xbc279351	-0.010227994
103	0xbbdf97b9	-0.0068235067
104	0xba32f10b	-0.00068260793
105	0x3b966353	0.004589477
106	0x3c46d568	0.012135841
107	0xba0b0952	-0.0005303818
108	0x3ac4ef3e	0.0015024913
109	0x3c197104	0.009365324
110	0x3b41aa17	0.0029550844
111	0x3ac43650	0.00149698
112	0x3b9f388c	0.004859036
113	0xbbdd747a	-0.00675827
114	0xbbcc200d	-0.0062294067
115	0xbb6e97d8	-0.0036406424
116	0x3c533704	0.012891535
117	0x3cbb50e8	0.022865728
118	0x3b0ad5f7	0.0021184662
119	0x3b53e0ab	0.0032329957
120	0x3c44b91e	0.012007026
121	0xb809c6eb	-3.2848602e-05
122	0x3bc08811	0.0058755954
123	0x3c80e083	0.015732056
124	0xba96d6bc	-0.0011508088
125	0xbc240a56	-0.01001223
126	0xbb081436	-0.0020764
127	0x3b24c810	0.002514366

sequential_1/dense_1/MatMul f4 [128, 1287]
0	0x3ce2c7c5	0.027683148
1	0xbcaa55c8	-0.020792857
2	0x3d3ad960	0.04561746
3	0x3d287e7c	0.04113625
4	0xbd381f36	-0.04495164
5	0x3c830cae	0.015997257
6	0x3cd9f802	0.026607517
7	0xbd387ec1	-0.045042757
8	0x3d418c5f	0.04725301
9	0x3d44d44b	0.04805402
10	0xbd8a6c6d	-0.06758962
11	0xbd2e9a0a	-0.04262737
12	0xbca813ed	-0.020517314
13	0xbce881ea	-0.02838226
14	0xbbc883f9	-0.006119248
15	0x3cfb0b5b	0.030645063
16	0x3cba2417	0.022722287
17	0x3d4c82e8	0.04992953
18	0x3d81f093	0.06344714
19	0xbd572896	-0.05252894
20	0xbc828241	-0.01593125
21	0x3c3f6ce1	0.011683674
22	0xbc0374f4	-0.008023489
23	0xbc3ae110	-0.011406198
24	0xbd97caaa	-0.07411702
25	0xbcfa42ea	-0.030549485
26	0x3d1b0fae	0.03785675
27	0xbcc55613	-0.024088895
28	0xbb6cd30e	-0.003613654
29	0x3d083b9e	0.03325998
30	0x3c21b027	0.009868658
31	0xbc58a9ee	-0.013224108
32	0x3d3b2109	0.0456858
33	0xbd89690d	-0.0670949
34	0x3d076d71	0.033063356
35	0xbb6d12e9	-0.0036174601
36	0xbcbcb0c9	-0.023033516
37	0xbd66ae8f	-0.056318816
38	0xbd4d14a2	-0.050068505
39	0xbd03513b	-0.03205989
40	0xbc1c8a65	-0.00955448
41	0x3cf3def6	0.029769402
42	0xbd55739d	-0.05211221
43	0xbd0d8553	-0.034550976
44	0xbd54dfb2	-0.051971145
45	0x3d32f9a5	0.04369511
46	0xbcdabd6d	-0.026701653
47	0xbd3ad0dc	-0.04560934
48	0xbc851b73	-0.01624844
49	0x3cb044ed	0.021517241
50	0xbd3b1d3c	-0.045682177
51	0xbd38f398	-0.045154184
52	0x3c492fda	0.012279475
53	0x3b204edc	0.0024461066
54	0xbd54eabb	-0.05198167
55	0xbd0a7f68	-0.03381291
56	0x3d93a847	0.07209831
57	0x3c354eab	0.011066119
58	0x3a34ad47	0.00068922754
59	0x3c895a89	0.016766803
60	0x3c29aaaf	0.010355636
61	0xbc98e543	-0.018664008
62	0xbd160d59	-0.036633823
63	0xbcd8ff70	-0.02648899
64	0x3d305465	0.043049235
65	0xbc4590e8	-0.012058474
66	0x3d65ec27	0.056133416
67	0xbd659e30	-0.056059062
68	0x3da3ee02	0.08004381
69	0xbce17878	-0.027523264
70	0xbcb117ea	-0.021617848
71	0x3ae30c9b	0.0017322482
72	0xbd30d8d8	-0.04317555
73	0x3cb3560e	0.02189162
74	0x3d502276	0.050814115
75	0xbd5b37d2	-0.05352003
76	0xbd18a0c4	-0.037262693
77	0xbbee73a4	-0.007276969
78	0x3d377797	0.044791784
79	0x3d72294a	0.059121408
80	0x3d4c05cc	0.049810216
81	0xbd0338e8	-0.032036692
82	0xba28dc12	-0.00064414844
83	0x3d64e7b2	0.055885024
84	0xbd86e0f6	-0.06585877
85	0x3d360025	0.04443373
86	0x3d252283	0.040316116
87	0xbbb3fc3b	-0.0054927147
88	0x3be29695	0.0069149234
89	0x3d12bd53	0.035825085
90	0xbc732d46	-0.014842337
91	0x3d232d1a	0.039837934
92	0x3cf0f296	0.029412549
93	0x3d3e2f3e	0.046431772
94	0x3a13dee4	0.0005640818
95	0xbc9fd3b6	-0.019510131
96	0xbd59193b	-0.053002577
97	0xbd7defcb	-0.061996263
98	0x3c9ba52d	0.01899966
99	0x3d66b60c	0.056325957
100	0x3d0b1f3d	0.033965338
101	0xbd5a0254	-0.053224877
102	0x3cd9ed50	0.026602417
103	0x3cbbc160	0.022919357
104	0xbd55fdf5	-0.052244145
105	0x3cb90f00	0.02259016
106	0x3d36bd44	0.04461409
107	0x3d0449b0	0.032296836
108	0xbd055b9f	-0.03255808
109	0xbaadaea2	-0.0013250897
110	0x3d569a53	0.05239327
111	0x3d3945c5	0.045232553
112	0xbd0a0020	-0.033691525
113	0x3d65a4fc	0.056065544
114	0xbc872331	-0.016496273
115	0x3d80442d	0.062630035
116	0xbab4c1fb	-0.0013790721
117	0x3d52be25	0.051450867
118	0x3d0985e4	0.033574954
119	0xbc38d8fe	-0.011282204
120	0xbd5055af	-0.050862964
121	0xbccde2ce	-0.025132563
122	0xbd404dbf	-0.046949144
123	0x3b10e155	0.0022106965
124	0x3c64a2f6	0.013954869
125	0x3c8f8405	0.017519007
126	0x3d8b5e4e	0.068050966
127	0x399b05aa	0.00029568124
128	0x3d7f8a9f	0.06238806
129	0x3d691cf6	0.056912385
130	0xbd5faa2c	-0.054605648
131	0x3c135915	0.008993407
132	0xbd377f43	-0.0447991
133	0x3d0a0e85	0.033705253
134	0xbcaa8fe2	-0.020820562
135	0x3d031aff	0.032008167
136	0x3c1d2f84	0.009593848
137	0x3d8497de	0.06474279
138	0xbcc64329	-0.024201946
139	0xbc9fa076	-0.019485693
140	0xbb0e4a25	-0.0021711674
141	0x3b49fd2c	0.0030821068
142	0x3c242b1c	0.010020044
143	0xbd6f84a4	-0.058476105
144	0xbd3e93d3	-0.046527695
145	0x3ccdeda1	0.025137724
146	0xbc18897a	-0.009310121
147	0x3d4b9fae	0.04971283
148	0x3cf2ca24	0.029637404
149	0x3d43aa33	0.047769736
150	0x3d87859d	0.066172816
151	0xb86579e3	-5.471137e-05
152	0x3cc4016f	0.023926465
153	0x3c829deb	0.015944442
154	0x3d7e7a26	0.06212821
155	0xbd1e56b5	-0.03865691
156	0x3c8014db	0.015634945
157	0x3d46dbfa	0.04854963
158	0x3d7c90fa	0.061661698
159	0x3d089dc2	0.033353575
160	0xbc0d8b8a	-0.008639226
161	0x3cce0d88	0.025152937
162	0x3be4e926	0.0069858013
163	0xbd81ebae	-0.063437805
164	0x3ce4f335	0.027948001
165	0xbcce3e64	-0.025176235
166	0x3cc9cf7c	0.02463507
167	0x3c834871	0.016025754
168	0x3ce084e2	0.027407113
169	0xbd1f60f0	-0.038910806
170	0x3d096f99	0.033553693
171	0x3d7aca36	0.061228
172	0xbd4da1e0	-0.050203204
173	0x3d189582	0.037251957
174	0xbc798f87	-0.0152319735
175	0x3cab0566	0.020876598
176	0x3c914357	0.017732305
177	0xbcc27a46	-0.023739945
178	0xbd4bf3b6	-0.049792968
179	0x3d53d6dd	0.05171858
180	0xbd12a603	-0.035802852
181	0xbd3c1be5	-0.04592504
182	0xbbd3d915	-0.006465087
183	0x3d8cd1f3	0.06875982
184	0x3d3c7a0a	0.046014823
185	0x3d83ada2	0.06429602
186	0x3b449fbe	0.003000244
187	0x3d39ed29	0.04539219
188	0xbd3c352f	-0.045949157
189	0xbd3e2fc7	-0.046432283
190	0x3d0f4c59	0.03498492
191	0x3d467e50	0.048460305
192	0x3d7e7ec8	0.062132627
193	0x3d9160ce	0.07098542
194	0x3c346368	0.011010028
195	0x3b978bed	0.0046248347
196	0xba4c206a	-0.00077868125
197	0xbcb88949	-0.0225264
198	0xbd6c8b2f	-0.057749923
199	0xba14f8de	-0.0005682836
200	0x3dae6db0	0.08517015
201	0xbd6a8d97	-0.057263937
202	0xbd4f63a4	-0.050632134
203	0xbd809ce1	-0.06279922
204	0x3c65a39d	0.014016059
205	0x3da443c2	0.08020736
206	0x3d66c6f7	0.05634209
207	0x3d213dec	0.039365694
208	0x3b3db5e6	0.0028947531
209	0xbc6f0c2c	-0.014590304
210	0x3cf86f30	0.030326456
211	0x3cc4edbb	0.02403914
212	0x3cace9fc	0.021107666
213	0xbd243699	-0.04009113
214	0xbca46f81	-0.0200727
215	0x3c9bcf3a	0.019019712
216	0x3bc1f8fc	0.005919574
217	0xbd0422df	-0.03225982
218	0x3cfe59b0	0.031048626
219	0xbcbb48aa	-0.022861797
220	0xbd600b9e	-0.05469858
221	0x3d8aac0e	0.06771098
222	0x3c351754	0.011052925
223	0x3d756b9d	0.05991708
224	0xbc248d45	-0.010043447
225	0x3c9113aa	0.017709572
226	0x3d7efe43	0.0622542
227	0x3c7d6d50	0.015467957
228	0x3d90c50e	0.07068835
229	0xbd3f0db1	-0.046643917
230	0xbcaa6697	-0.020800872
231	0x3d130563	0.03589381
232	0xbd15d2fe	-0.03657817
233	0x3d2a34a5	0.041554112
234	0x3d28d3a9	0.04121748
235	0x3d27c157	0.040955868
236	0x3d5db77a	0.054130055
237	0xbd246c88	-0.040142566
238	0xbd545cd9	-0.05184636
239	0xbbec6703	-0.0072144284
240	0xbd8b0e0f	-0.06789791
241	0x3cdc04ce	0.02685776
242	0x3d1b6fd1	0.037948433
243	0x3c93b860	0.018032253
244	0x3d32a2d0	0.0436123
245	0x3d2913f6	0.0412788
246	0xbc0a384b	-0.008436273
247	0xbd8edaa4	-0.06975296
248	0x3d737d4e	0.05944567
249	0x3ccf9338	0.025338754
250	0xbd26cf66	-0.040725134
251	0x3d60da93	0.05489595
252	0x3ccea13b	0.025223365
253	0x3d3b4a24	0.045725003
254	0x3c9a0ad2	0.018803988
255	0x3d403281	0.046923164
